…
==============================
 L               | 4
 batch_size      | 256
 dataset         | gowalla
 dropout         | 0
 early_stop      | 10
 emb_size        | 64
 epoch           | 200
 eval_batch_size | 256
 gpu             | 0
 history_max     | 20
 l2              | 1e-06
 lr              | 0.001
 num_horizon     | 16
 num_neg         | 1
 num_vertical    | 8
 num_workers     | 5
 optimizer       | Adam
 random_seed     | 0
 test_all        | 0
 topk            | 5,10,20,50
==============================
GPU available: True
Load corpus from ../data/gowalla/BaseReader.pkl
#params: 6984488
Caser(
  (u_embeddings): Embedding(50822, 64)
  (i_embeddings): Embedding(57441, 64, padding_idx=0)
  (conv_h): ModuleList(
    (0): Conv2d(1, 16, kernel_size=(1, 64), stride=(1, 1))
    (1): Conv2d(1, 16, kernel_size=(2, 64), stride=(1, 1))
    (2): Conv2d(1, 16, kernel_size=(3, 64), stride=(1, 1))
    (3): Conv2d(1, 16, kernel_size=(4, 64), stride=(1, 1))
  )
  (conv_v): Conv2d(1, 8, kernel_size=(20, 1), stride=(1, 1))
  (fc): Linear(in_features=576, out_features=64, bias=True)
  (out): Linear(in_features=128, out_features=64, bias=True)
)
Load model from ../model/Caser/Caser__gowalla__0__lr=0.001__l2=1e-06__emb_size=64__num_horizon=16__num_vertical=8__L=4.pt
Optimizer: Adam
Epoch 1     loss=0.0441 [313.5 s]    dev=(HR@5:0.7902,NDCG@5:0.6279,HR@10:0.8898,NDCG@10:0.6604,HR@20:0.9390,NDCG@20:0.6729,HR@50:0.9787,NDCG@50:0.6809) [2.3 s] *
Epoch 2     loss=0.0338 [259.6 s]    dev=(HR@5:0.7951,NDCG@5:0.6293,HR@10:0.8838,NDCG@10:0.6582,HR@20:0.9336,NDCG@20:0.6710,HR@50:0.9792,NDCG@50:0.6802) [2.3 s] *
…
==============================
 L               | 4
 batch_size      | 256
 dataset         | yelp
 dropout         | 0
 early_stop      | 10
 emb_size        | 64
 epoch           | 200
 eval_batch_size | 256
 gpu             | 0
 history_max     | 20
 l2              | 1e-06
 lr              | 0.001
 num_horizon     | 16
 num_neg         | 1
 num_vertical    | 8
 num_workers     | 5
 optimizer       | Adam
 random_seed     | 0
 test_all        | 0
 topk            | 5,10,20,50
==============================
GPU available: True
Load corpus from ../data/yelp/BaseReader.pkl
#params: 5199784
Caser(
  (u_embeddings): Embedding(34307, 64)
  (i_embeddings): Embedding(46070, 64, padding_idx=0)
  (conv_h): ModuleList(
    (0): Conv2d(1, 16, kernel_size=(1, 64), stride=(1, 1))
    (1): Conv2d(1, 16, kernel_size=(2, 64), stride=(1, 1))
    (2): Conv2d(1, 16, kernel_size=(3, 64), stride=(1, 1))
    (3): Conv2d(1, 16, kernel_size=(4, 64), stride=(1, 1))
  )
  (conv_v): Conv2d(1, 8, kernel_size=(20, 1), stride=(1, 1))
  (fc): Linear(in_features=576, out_features=64, bias=True)
  (out): Linear(in_features=128, out_features=64, bias=True)
)
Optimizer: Adam
Epoch 1     loss=0.4365 [94.0 s]    dev=(HR@5:0.2266,NDCG@5:0.1501,HR@10:0.3340,NDCG@10:0.1849,HR@20:0.4643,NDCG@2    0:0.2176,HR@50:0.6922,NDCG@50:0.2629) [1.7 s] *
Epoch 2     loss=0.1963 [93.6 s]    dev=(HR@5:0.2524,NDCG@5:0.1700,HR@10:0.3534,NDCG@10:0.2026,HR@20:0.4730,NDCG@2    0:0.2328,HR@50:0.6522,NDCG@50:0.2682) [1.8 s] *
Epoch 3     loss=0.1250 [93.8 s]    dev=(HR@5:0.2851,NDCG@5:0.1962,HR@10:0.3891,NDCG@10:0.2298,HR@20:0.4974,NDCG@2    0:0.2572,HR@50:0.6786,NDCG@50:0.2927) [1.8 s] *
…
