…
==============================
 batch_size      | 256
 dataset         | gowalla
 dropout         | 0
 early_stop      | 10
 emb_size        | 64
 epoch           | 200
 eval_batch_size | 256
 gpu             | 0
 history_max     | 20
 l2              | 1e-06
 lr              | 0.001
 num_heads       | 4
 num_layers      | 1
 num_neg         | 1
 num_workers     | 5
 optimizer       | Adam
 random_seed     | 0
 test_all        | 0
 topk            | 5,10,20,50
==============================
GPU available: True
Load corpus from ../data/gowalla/BaseReader.pkl
#params: 3698624
SASRec(
  (i_embeddings): Embedding(57441, 64)
  (p_embeddings): Embedding(21, 64)
  (transformer_block): ModuleList(
    (0): TransformerLayer(
      (masked_attn_head): MultiHeadAttention(
        (q_linear): Linear(in_features=64, out_features=64, bias=True)
        (k_linear): Linear(in_features=64, out_features=64, bias=True)
        (v_linear): Linear(in_features=64, out_features=64, bias=True)
      )
      (layer_norm1): LayerNorm(torch.Size([64]), eps=1e-05, elementwise_affine=True)
      (dropout1): Dropout(p=0)
      (linear1): Linear(in_features=64, out_features=64, bias=True)
      (linear2): Linear(in_features=64, out_features=64, bias=True)
      (layer_norm2): LayerNorm(torch.Size([64]), eps=1e-05, elementwise_affine=True)
      (dropout2): Dropout(p=0)
    )
  )
)
Load model from ../model/SASRec/SASRec__gowalla__0__lr=0.001__l2=1e-06__emb_size=64__num_layers=1__num_heads=4.pt
Optimizer: Adam
Epoch 1     loss=0.0178 [125.4 s]    dev=(HR@5:0.7808,NDCG@5:0.6213,HR@10:0.8681,NDCG@10:0.6498,HR@20:0.9204,NDCG@NDCG@50:0.6728) [1.0 s] *
Epoch 2     loss=0.0308 [120.7 s]    dev=(HR@5:0.7890,NDCG@5:0.6332,HR@10:0.8741,NDCG@10:0.6611,HR@20:0.9257,NDCG@NDCG@50:0.6831) [1.0 s] *
…
 Arguments       | Values
==============================
 batch_size      | 256
 dataset         | yelp
 dropout         | 0
 early_stop      | 10
 emb_size        | 64
 epoch           | 200
 eval_batch_size | 256
 gpu             | 0
 history_max     | 20
 l2              | 1e-06
 lr              | 0.001
 num_heads       | 4
 num_layers      | 1
 num_neg         | 1
 num_workers     | 5
 optimizer       | Adam
 random_seed     | 0
 test_all        | 0
 topk            | 5,10,20,50
==============================
GPU available: True
Load corpus from ../data/yelp/BaseReader.pkl
#params: 2970880
SASRec(
  (i_embeddings): Embedding(46070, 64)
  (p_embeddings): Embedding(21, 64)
  (transformer_block): ModuleList(
    (0): TransformerLayer(
      (masked_attn_head): MultiHeadAttention(
        (q_linear): Linear(in_features=64, out_features=64, bias=True)
        (k_linear): Linear(in_features=64, out_features=64, bias=True)
        (v_linear): Linear(in_features=64, out_features=64, bias=True)
      )
      (layer_norm1): LayerNorm(torch.Size([64]), eps=1e-05, elementwise_affine=True)
      (dropout1): Dropout(p=0)
      (linear1): Linear(in_features=64, out_features=64, bias=True)
      (linear2): Linear(in_features=64, out_features=64, bias=True)
      (layer_norm2): LayerNorm(torch.Size([64]), eps=1e-05, elementwise_affine=True)
      (dropout2): Dropout(p=0)
    )
  )
)
Optimizer: Adam
Epoch 1     loss=0.2819 [46.9 s]    dev=(HR@5:0.3297,NDCG@5:0.2335,HR@10:0.4345,NDCG@10:0.2672,HR@20:0.5596,NDCG@2    0:0.2989,HR@50:0.7594,NDCG@50:0.3384) [1.4 s] *
Epoch 2     loss=0.0900 [61.8 s]    dev=(HR@5:0.3124,NDCG@5:0.2286,HR@10:0.4038,NDCG@10:0.2581,HR@20:0.5007,NDCG@2    0:0.2826,HR@50:0.6894,NDCG@50:0.3197) [1.2 s]
…
